model_default.pth (torch, 635432 bytes, 8 tensors)

conv1.weight f4 [32, 4, 3, 3]
0	0x3c6ed8e0	0.014578074
1	0x3dc30bed	0.09523759
2	0x3dde3d99	0.108515926
3	0x3b527764	0.003211462
4	0x3d0f0256	0.034914337
5	0xbe8a0a02	-0.2696076
6	0x3d911c93	0.07085528
7	0xbd5b771a	-0.05358038
8	0xbd6869b3	-0.056741428
9	0xbdd91db5	-0.10601369
10	0xbe0c4242	-0.1369715
11	0x3c7b0ece	0.015323354
12	0xbdbca888	-0.09211832
13	0xbd6c9362	-0.057757743
14	0xbe9931aa	-0.29920703
15	0x3d7f809e	0.06237852
16	0x3e05c7c6	0.13064489
17	0xbe42e369	-0.19032063
18	0x3d51a8c3	0.051186334
19	0xbebd04f9	-0.36917856
20	0x3e17f2a0	0.14838648
21	0xbd89e4b6	-0.06733076
22	0xbd9b2dff	-0.075771324
23	0xbf4cfd79	-0.8007427
24	0xbdfe8bb1	-0.12428988
25	0xbdb0968e	-0.08622466
26	0x3c4f53d4	0.0126542635
27	0xbe74c579	-0.23903455
28	0xbf7b78c9	-0.9823118
29	0xbdc29ab9	-0.09502167
30	0x3e786919	0.24258842
31	0x3e373c66	0.17894134
32	0x3f57e7d8	0.8433814
33	0x3df37a48	0.11888558
34	0x3e14eafb	0.14542763
35	0x3e2c6827	0.16836606
36	0x3e38c31f	0.18043183
37	0xbdf854f1	-0.12125576
38	0xbc93b2eb	-0.01802965
39	0xbe68aa24	-0.22721153
40	0x3e750227	0.23926602
41	0x3c418457	0.011811337
42	0x3cfe408d	0.03103664
43	0xbd0bd4e6	-0.034138583
44	0x3e351682	0.17684367
45	0x3e440971	0.19144227
46	0xbe304984	-0.17215544
47	0xbe9b1cd3	-0.3029543
48	0xbe4c2c03	-0.19938664
49	0x3ddfd87d	0.10929964
50	0xbe21bdca	-0.15795055
51	0xbe03705c	-0.1283583
52	0xbe384d69	-0.1799828
53	0x3e682725	0.22671182
54	0x3ed355be	0.41276354
55	0x3df6be90	0.12048066
56	0xba2f1ed1	-0.0006680312
57	0xbdbba9be	-0.09163235
58	0x3df5f0bc	0.12008807
59	0x3e5972da	0.21235219
60	0x3e4ec949	0.20193972
61	0x3e6b99b2	0.23007849
62	0x3e13b839	0.14425744
63	0x3eeb0a64	0.45906365
64	0x3c663ce1	0.014052601
65	0xbeaf3bf7	-0.34225437
66	0xbf19029c	-0.59769607
67	0xbeb7ed43	-0.35923204
68	0xbde3065f	-0.110851996
69	0xbe8ecddb	-0.2789143
70	0xbe831187	-0.2559931
71	0xbe4291fd	-0.19001003
72	0xbeb2f969	-0.3495591
73	0xbd991410	-0.0747453
74	0xbe255b46	-0.161481
75	0xbe663960	-0.22482824
76	0xbe59b369	-0.21259846
77	0xbe2cdd26	-0.16881236
78	0x3e098882	0.1343098
79	0xbd33a15c	-0.043855056
80	0x3e09e83b	0.13467495
81	0xbeceb106	-0.40369433
82	0xbdbc2d3b	-0.091883145
83	0x3d08798d	0.033319045
84	0xbe9bfe0b	-0.30467257
85	0x3e391939	0.18076028
86	0x3dae422c	0.08508715
87	0xbd05c3c2	-0.032657392
88	0xbe496bd0	-0.19670033
89	0xbc1b34a8	-0.009473003
90	0x3e56676e	0.20937893
91	0x3e4ca43d	0.19984527
92	0xbdf96d1d	-0.12179015
93	0x3e8380f0	0.2568431
94	0x3e72925f	0.23688649
95	0x3e4b20ea	0.19836774
96	0xbe51a3fd	-0.20472713
97	0xbe6986e6	-0.22805366
98	0x3e302bda	0.17204228
99	0x3f06103a	0.5236851
100	0x3e225dea	0.15856138
101	0x3e5360ec	0.20642442
102	0x3eb04856	0.34430188
103	0xbdae2c6b	-0.08504566
104	0x3d527b45	0.05138709
105	0x3f07c308	0.5303197
106	0xbf2a5d2e	-0.6654843
107	0xbe220367	-0.1582161
108	0x3ccb2453	0.024797594
109	0x3ea58d4c	0.32334363
110	0x3e0fd664	0.14046627
111	0x3e5d143a	0.21589747
112	0x3e2c8f77	0.16851602
113	0x3dc41e83	0.09576132
114	0x3e8f0ae0	0.27937984
115	0x3e12be1f	0.14330338
116	0xbe33e0bf	-0.17566203
117	0x3e041b8c	0.12901133
118	0x3e310342	0.17286399
119	0x3c51abce	0.012797309
120	0x3dec1107	0.11526685
121	0x3dfa6320	0.12225938
122	0xbd7dd216	-0.06196793
123	0x3da5f835	0.08103982
124	0x3dfdbcb5	0.12389509
125	0xbed63b8b	-0.41842303
126	0xbacf74c8	-0.001582765
127	0x3e4060db	0.18786947
128	0x3ef68ff2	0.48156697
129	0xbd3469a8	-0.044046074
130	0x3e1cc787	0.15310489
131	0x3ce505b7	0.027956827
132	0x3d5793a8	0.05263105
133	0x3e7cdfd0	0.24694753
134	0xbdb8ec76	-0.09029476
135	0xbe11345b	-0.14180128
136	0xbe2d9d63	-0.1695457
137	0x3e41486c	0.18875283
138	0xbf1eb2b6	-0.6199144
139	0xbcdffd26	-0.02734239
140	0xbf457f77	-0.7714762
141	0xbe3a517d	-0.18195148
142	0xbca49e71	-0.020095082
143	0xbe14360f	-0.14473747
144	0x3db1563c	0.08659026
145	0x3c7dd820	0.015493423
146	0x3e538a6a	0.2065827
147	0x3eb87adb	0.3603123
148	0xbd458bcd	-0.048229028
149	0xbdb89e68	-0.090145886
150	0xbcb2edaa	-0.021841843
151	0x3e66f90d	0.22555943
152	0xbe4a18e2	-0.19736055
153	0x3d747e80	0.059690952
154	0x3cfec817	0.03110127
155	0x3e4cbe6a	0.19994512
156	0x3e7471f8	0.238716
157	0xbd3636a7	-0.044485714
158	0x3e48dcbd	0.19615455
159	0xbd9978f3	-0.07493772
160	0x3e477c8d	0.19481106
161	0xbe616f95	-0.22015221
162	0x3e91d1cc	0.28480375
163	0xbe1ef583	-0.15523343
164	0xbdbb7048	-0.09152275
165	0x3ddfb0e3	0.1092241
166	0x3d84cf7d	0.06484888
167	0x3dc14c09	0.09438331
168	0xbdfff6a2	-0.12498213
169	0xbdb26fcb	-0.08712729
170	0x3e542393	0.20716695
171	0xbf37e243	-0.71829623
172	0xbd873f71	-0.06603897
173	0xbe735bb7	-0.23765455
174	0xbe4c6aca	-0.19962612
175	0xbdc1b5f6	-0.094585344
176	0xbe06659b	-0.13124697
177	0xbfa479f3	-1.2849716
178	0xbeabe323	-0.3357173
179	0x3e51ae39	0.20476617
180	0xbc996f15	-0.018729726
181	0x3c6270d7	0.013820848
182	0xbb37d188	-0.0028048474
183	0xba754ab7	-0.00093571417
184	0xbd5932bf	-0.05302691
185	0xbd5fecdb	-0.054669242
186	0xbd87d318	-0.0663206
187	0xbd8200c0	-0.06347799
188	0xbb5c865a	-0.0033649416
189	0xbe0d556c	-0.13802117
190	0xbe218b1a	-0.1577572
191	0xbd96e7d5	-0.07368437
192	0x3d69e282	0.05710078
193	0xbca3ff54	-0.02001921
194	0x3d5935b8	0.053029746
195	0xbc7204d3	-0.014771658
196	0x3cafba34	0.021451093
197	0x3c4abe8f	0.012374534
198	0xbf4a4ef6	-0.79026735
199	0xbe2063dd	-0.15663095
200	0x3dda07f5	0.10646049
201	0xbc31269e	-0.01081243
202	0xba09ec4b	-0.00052613457
203	0x3c6c20ff	0.014412164
204	0xbf29f9e6	-0.6639694
205	0x3db3862f	0.08765828
206	0xbdccd736	-0.10001986
207	0x3f6ba535	0.9204896
208	0x3e8d42d5	0.2759005
209	0xbcb1f906	-0.021725189
210	0xbf86620c	-1.0498672
211	0x3d81a7f1	0.063308604
212	0xbda4d6a9	-0.08048756
213	0x3f330e15	0.6994336
214	0xbd304666	-0.043035887
215	0x3dedbf18	0.11608714
216	0xbdf13999	-0.11778564
217	0x3d53b022	0.051681645
218	0x3cc87f5b	0.02447479
219	0xbdaaca9e	-0.083394274
220	0xbe0b9e3f	-0.13634585
221	0xbe1b90a6	-0.15191898
222	0xbe1bbacb	-0.15207975
223	0xbef25592	-0.4733091
224	0xbd619ef8	-0.055083245
225	0xbd6c1238	-0.057634562
226	0x3dd91769	0.10600168
227	0x3da79cb3	0.08184185
228	0x3e8e3b89	0.27779797
229	0xbe37c6d7	-0.17946945
230	0xbde5c5fa	-0.11219402
231	0x3e59265c	0.21206039
232	0xbe7a0940	-0.24417591
233	0xbe81045b	-0.25198635
234	0xbde3f8a8	-0.11131412
235	0x3dc33995	0.09532467
236	0x3c1de57e	0.009637235
237	0x3ea287b7	0.31744167
238	0x3cd0ee3f	0.02550423
239	0xbefe6b35	-0.49691167
240	0x3dcef1f3	0.10104742
241	0x3ec71a9c	0.3888749
242	0xbe28eaf7	-0.16495882
243	0xbf3da88b	-0.740853
244	0x3e0a026a	0.13477483
245	0xbda737f2	-0.081649676
246	0xbe473a0a	-0.19455734
247	0x3ed2b65c	0.41154754
248	0x3f07d110	0.5305338
249	0xbebaa347	-0.36452696
250	0x3e23bd6a	0.15990224
251	0x3ee274a4	0.44229615
252	0xbd247afc	-0.04015635
253	0xbdf2a826	-0.11848478
254	0x3d1c258a	0.038121738
255	0xbcdae0be	-0.026718494

conv1.bias f4 [32]
0	0xbd159c23	-0.036525857
1	0xbd0f404e	-0.034973435
2	0xbdf40d6c	-0.119166225
3	0x3cfe90cb	0.031074902
4	0x3dacc740	0.084364414
5	0xba610989	-0.00085844897
6	0x3c306fff	0.010768889
7	0xbcd40319	-0.025880383
8	0xbc5a37bc	-0.013318952
9	0x3d1c777a	0.03819988
10	0xbd97506a	-0.07388385
11	0x3ca8cd5e	0.02060574
12	0x3d48ef95	0.04905661
13	0xbcc35429	-0.023843842
14	0x3cd7116f	0.02625343
15	0xbd9d6fdf	-0.07687353
16	0x3bc936bc	0.006140558
17	0xbdd801ae	-0.105471954
18	0xbd9b589b	-0.075852595
19	0x3d8791f8	0.06619638
20	0xbcb4b5d9	-0.022059368
21	0x3d002366	0.03128376
22	0x3dec4ebd	0.11538456
23	0xbc5e7773	-0.013578284
24	0xbde9685d	-0.11396859
25	0xbde00c07	-0.10939794
26	0xbd6950e4	-0.05696191
27	0xbd8e9f6e	-0.069640025
28	0xbdace4ff	-0.08442115
29	0xbcfd81a2	-0.030945603
30	0xbd3ace61	-0.045606975
31	0xbd5fac7f	-0.054607864

conv2.weight f4 [64, 32, 2, 2]
0	0x3cd734b2	0.026270244
1	0xbe8d70cc	-0.2762512
2	0x3e982c25	0.2972118
3	0xbddce0b1	-0.10785044
4	0x3e7bfe58	0.24608743
5	0x3e4304f7	0.19044863
6	0x3d782118	0.060578436
7	0x3d8d7865	0.06907729
8	0x3dd53534	0.10410538
9	0x3df371dd	0.11886952
10	0xbe13a1ca	-0.14417186
11	0x3e13419a	0.14380494
12	0xbdeb4f61	-0.1148975
13	0xbc45fea5	-0.012084638
14	0xbe00fed5	-0.1259721
15	0x3cb6245b	0.022234133
16	0xbd70b9eb	-0.058771055
17	0xbe01b39c	-0.12666172
18	0x3dc5cc6f	0.09658133
19	0xbd8e667d	-0.06953142
20	0x3e8b3d1f	0.2719507
21	0x3c54f953	0.012998897
22	0x3d098c7a	0.033581235
23	0xbf034e92	-0.51291764
24	0xbda5cb05	-0.080953635
25	0xbe33161d	-0.17488904
26	0xbde4737d	-0.1115484
27	0xbe4e995e	-0.20175692
28	0xbf324c10	-0.6964731
29	0xbeab2b5d	-0.3343152
30	0xbed61f61	-0.41820815
31	0xbed9099f	-0.42390153
32	0xba976e8e	-0.0011553334
33	0x3dc494a9	0.09598667
34	0xbea89fe2	-0.3293448
35	0xbe9b710b	-0.30359682
36	0x3e0a8610	0.13527703
37	0x3e294921	0.16531803
38	0x3dbffe45	0.0937467
39	0xbdac7d76	-0.08422367
40	0xbe9b2572	-0.30302006
41	0xbed27780	-0.41106796
42	0xbdc5cfa2	-0.096587434
43	0xbe0160e5	-0.12634619
44	0x3c27a5d9	0.010232412
45	0xbd795d9d	-0.060880292
46	0xbd220f34	-0.03956528
47	0x3e47a1fc	0.19495386
48	0xbd2eaeca	-0.04264716
49	0x3bf4df45	0.007472905
50	0xbce65e9d	-0.028121287
51	0x3d30003a	0.042968966
52	0x3e1d9340	0.15388203
53	0x3dc45b5e	0.095877394
54	0x3cd6b13d	0.02620756
55	0x3d94c2a9	0.07263691
56	0x3dd8f1f5	0.10593025
57	0xbe01abdc	-0.12663215
58	0xbe0dedef	-0.13860296
59	0xbe883f75	-0.26610914
60	0xbe24c998	-0.16092527
61	0xbd9df418	-0.07712573
62	0x3d9b0b29	0.07570488
63	0x3d8e8d18	0.06960505
64	0x3d31a20a	0.043367423
65	0xbedd1455	-0.43179575
66	0xbe7ac035	-0.24487384
67	0xbd9630c6	-0.073335215
68	0xbe09dafe	-0.13462445
69	0xbf10ea89	-0.5660787
70	0x39796ac4	0.00023786264
71	0xbf3981a5	-0.72463447
72	0x3dbdd189	0.09268481
73	0x3df36144	0.11883786
74	0x3e0a344a	0.13496509
75	0x3df873df	0.12131476
76	0x3dfacf9a	0.12246628
77	0xbc7fe4e1	-0.015618534
78	0x3d91ca18	0.071186244
79	0x3d59acc6	0.053143285
80	0x3e020a69	0.12699284
81	0xbe9bc550	-0.30423975
82	0x3ceab1ce	0.028649237
83	0xbe8330e7	-0.25623247
84	0x3da4558b	0.080241285
85	0x3d40e8ee	0.04709714
86	0x3daba6f9	0.08381457
87	0xbd7a092d	-0.061043907
88	0x3d917d22	0.07103945
89	0x3dd31a43	0.103077434
90	0x3d9999cc	0.075000376
91	0xbe13b0f2	-0.14422968
92	0x3c0ed682	0.008718135
93	0x3c472628	0.012155093
94	0xbe6395f1	-0.22225167
95	0x3d895e40	0.0670743
96	0xbd0814af	-0.03322285
97	0xbcb2acc8	-0.021810904
98	0x3d8db538	0.0691933
99	0x3c3357a0	0.010946184
100	0x3e42f6c3	0.19039445
101	0x3dd89b92	0.10576548
102	0x3ca8b9a6	0.020596337
103	0x3d3e5cbf	0.04647517
104	0x3d1b4b08	0.037913352
105	0x3d25026d	0.040285517
106	0x3e23fa68	0.16013491
107	0x3d54b6ae	0.05193203
108	0x3cae2f64	0.021262832
109	0x3e82ad7e	0.2552299
110	0x3e08c81c	0.13357586
111	0x3d8edc71	0.069756396
112	0xbe294daf	-0.1653354
113	0x3e0587d8	0.13040102
114	0x3e879639	0.26481798
115	0xbe5a6060	-0.21325827
116	0xbd44b5a7	-0.0480248
117	0xbe8ede8d	-0.27904168
118	0xbd223344	-0.039599672
119	0xbe987f8a	-0.29784805
120	0x3e5af7cd	0.21383591
121	0x3dbd9fab	0.0925897
122	0x3e760cdb	0.24028341
123	0x3df28f2c	0.11843714
124	0x3b97158b	0.0046107224
125	0x3e85b691	0.2611585
126	0xbe20188c	-0.15634364
127	0x39d77b06	0.00041099655
128	0x3d218055	0.039429028
129	0x3d802e0f	0.06258785
130	0xbe0073e5	-0.1254421
131	0xbdf98882	-0.1218424
132	0x3d852b0c	0.06502351
133	0xbd473cf3	-0.04864211
134	0xbc8c3be2	-0.017118398
135	0x3cb70b15	0.022344152
136	0x3c4eeced	0.01262973
137	0x3d98c5c1	0.074595936
138	0x3e4e89a4	0.20169693
139	0xbd974624	-0.07386425
140	0x3e1e9643	0.15487008
141	0x3d8750fe	0.06607245
142	0xbdd4c766	-0.10389595
143	0xbdfd6602	-0.12372972
144	0x3c92c393	0.017915523
145	0x3d3729f7	0.044717755
146	0x3a6186fe	0.0008603184
147	0x3da174de	0.07883619
148	0xbd3bcf26	-0.04585185
149	0x3e0aef6a	0.13567892
150	0xbe03f4a5	-0.12886293
151	0xbc049064	-0.008091066
152	0xbd4f2857	-0.05057558
153	0xbd3ed285	-0.046587486
154	0x3bd03de3	0.0063550337
155	0x3da8e451	0.08246673
156	0x3e7e6221	0.2484212
157	0x3ec30036	0.38086098
158	0x3ef02f57	0.46911117
159	0x3f0fa6fb	0.56114167
160	0x3d464878	0.048408955
161	0x3d928cf2	0.071557894
162	0x3e307f05	0.17235954
163	0xbe03e4bf	-0.12880228
164	0x3d49bc31	0.04925174
165	0xbde6ed4a	-0.11275728
166	0xbd2be8c8	-0.041970044
167	0xbe864055	-0.26220956
168	0x3e8eed11	0.27915242
169	0x3db8d8ed	0.0902575
170	0x3f00663b	0.5015599
171	0x3f35682c	0.7086208
172	0x3d299440	0.041401148
173	0x3d051582	0.032491215
174	0xbe4f26b8	-0.20229614
175	0xbe75036e	-0.2392709
176	0x3cb7e6ac	0.02244886
177	0x3c6f1089	0.014591345
178	0x3cbbfab2	0.02294669
179	0xbd5438f6	-0.051812135
180	0x3d655e6c	0.05599825
181	0x3cd59d54	0.026075996
182	0xbdab0cc4	-0.08352044
183	0x3e23318e	0.15936872
184	0x3c9e1c55	0.01930062
185	0x3e13d3ab	0.14436214
186	0xbdd0f9aa	-0.1020387
187	0xbcf9f900	-0.03051424
188	0x3d46624b	0.048433583
189	0xbdc3663f	-0.09540986
190	0x3db755f1	0.08951939
191	0x3c5068f5	0.012720336
192	0x3e07baa0	0.13254786
193	0x3e674fc0	0.22589016
194	0x3e8f00ab	0.27930197
195	0x3e9ebe5a	0.31004602
196	0x3e8d7421	0.27627662
197	0x3e0365b6	0.12831768
198	0x3e8c4f45	0.27404228
199	0x3e37db1c	0.17954677
200	0xbe0b239b	-0.13587801
201	0x3d014df5	0.031568486
202	0xbe35b21e	-0.17743728
203	0x3d11751c	0.035512075
204	0xbcf36aa7	-0.029713942
205	0x3e073099	0.13202132
206	0x3d67c101	0.056580547
207	0xbde0ef30	-0.109831214
208	0x3e9d96c6	0.30779094
209	0x3d1b7e81	0.03796244
210	0x3e3aca7b	0.18241303
211	0x3de9072c	0.11378321
212	0x3d5d84b1	0.054081623
213	0x3e035369	0.12824787
214	0xbe429b28	-0.190045
215	0x3e0fcb87	0.14042483
216	0x3c5eeace	0.0136057865
217	0xbdb93dda	-0.090450004
218	0xbe911b46	-0.2834112
219	0xbe29a888	-0.16568196
220	0x3dff9317	0.12479227
221	0x3d41fcc5	0.0473602
222	0x3e1553e0	0.14582777
223	0xbdeb057e	-0.11475657
224	0xbdf42b76	-0.11922352
225	0xbe5ecff3	-0.21759014
226	0x3d355b22	0.044276364
227	0xbdc5e153	-0.09662118
228	0x3cfc2da9	0.030783491
229	0xbdad4472	-0.084603205
230	0x3ebd803f	0.37011907
231	0xbd9a84b1	-0.0754484
232	0xbe3f4bbe	-0.18681237
233	0xbd0be96d	-0.03415816
234	0x3dfc071f	0.12306046
235	0x3e138703	0.14406972
236	0x3d09681e	0.03354656
237	0x3d33eb41	0.043925527
238	0xbd6da6c7	-0.05802038
239	0x3b04d907	0.002027096
240	0x3e1e2f2c	0.15447682
241	0xbe04a360	-0.12952948
242	0xbd1c6530	-0.038182437
243	0x3d917000	0.071014404
244	0xbca46ef8	-0.020072445
245	0x3dd0b1af	0.101901405
246	0x3dd5b6ff	0.10435294
247	0xbe186a65	-0.14884336
248	0x3d23e88c	0.040016696
249	0x3e0b4812	0.13601711
250	0xbe7e9b51	-0.24863936
251	0xbeade2e2	-0.3396216
252	0xbddc509a	-0.10757561
253	0x3cc80486	0.02441622
254	0xbe56bb0f	-0.20969795
255	0xbe39e947	-0.18155394

conv2.bias f4 [64]
0	0xbcada467	-0.021196557
1	0x3d01d85b	0.031700473
2	0x3d5c02c4	0.053713575
3	0xbd8a5557	-0.067545585
4	0xbd1a51f8	-0.037675828
5	0x3d47dd6c	0.04879515
6	0xbcd449f2	-0.025914166
7	0x3e27c813	0.16384916
8	0xbe214f4e	-0.15752909
9	0x3bf4053a	0.007446912
10	0xbc23e963	-0.010004374
11	0xbc89d640	-0.016825795
12	0xbdf29864	-0.118454725
13	0x3d140629	0.036138687
14	0x3db29315	0.0871946
15	0x3daaebf7	0.08345788
16	0xbdc74e6f	-0.09731757
17	0x3e0d3159	0.13788356
18	0x3dffdbdb	0.12493106
19	0x3a873347	0.0010314964
20	0xbc12f095	-0.008968492
21	0x3d1a6363	0.03769244
22	0xbd9e58d2	-0.07731785
23	0xbd97e693	-0.074170254
24	0x3ca6042c	0.020265661
25	0xbc9b1a3f	-0.018933414
26	0xbdd4db52	-0.103933945
27	0xbdc9e34e	-0.09857808
28	0xbd60644d	-0.054783154
29	0xbb91cbfa	-0.0044493647
30	0x3dd132b3	0.10214748
31	0xbc079131	-0.008274362
32	0xbccdaff8	-0.025108323
33	0x3d7797ef	0.06044763
34	0xb853c622	-5.0490846e-05
35	0x3db93c28	0.09044677
36	0xbd0600d5	-0.032715637
37	0x3b155722	0.002278753
38	0xbd253874	-0.04033704
39	0xbd533de5	-0.0515727
40	0xbdd0748f	-0.10178482
41	0xbdbb614c	-0.09149417
42	0x3d45ed5a	0.04832206
43	0x3e32abe0	0.17448378
44	0xbd6666d2	-0.0562504
45	0xbccbd133	-0.024880027
46	0x3c1ca9ae	0.009561939
47	0xbcb13350	-0.021630913
48	0xbbb042c3	-0.0053790524
49	0xbd67ec0d	-0.0566216
50	0x3da3a9a2	0.07991339
51	0xbdedd0fc	-0.11612126
52	0xbe30b324	-0.17255837
53	0xbe04b066	-0.12957916
54	0xbcc51d53	-0.024061834
55	0xbd603a63	-0.054743182
56	0xbcee738a	-0.029107828
57	0x3df020ac	0.11724982
58	0xbd3db125	-0.046311516
59	0xbd8a07c1	-0.0673976
60	0x3d411d0c	0.047146842
61	0xbd43713c	-0.04771541
62	0x3e02d962	0.12778237
63	0x3da03619	0.07822818

fc1.weight f4 [256, 576]
0	0x3b7b638f	0.0038358902
1	0x3cfcc66c	0.030856334
2	0xbd0d239f	-0.0344578
3	0x3c83e411	0.016099961
4	0xbc6cb3b4	-0.014447141
5	0x3c95cb24	0.018285342
6	0xbcd87d8a	-0.02642705
7	0xbcc9afeb	-0.024620017
8	0xbcc490b5	-0.023994783
9	0x3c85c641	0.016329886
10	0x3c7c9ebe	0.015418706
11	0xbd0219f2	-0.031763025
12	0xbd42abb8	-0.047527045
13	0x3ba60f84	0.0050677676
14	0xbc902775	-0.01759694
15	0x3c15d13f	0.009144126
16	0xbd29b14f	-0.04142886
17	0xbbff4e0b	-0.007791286
18	0x3d01bd64	0.031674758
19	0xbc253d6c	-0.010085445
20	0x3bffee2f	0.007810376
21	0x3c9ca1f9	0.019120203
22	0xbc8c138e	-0.017099168
23	0xbcdaf975	-0.026730279
24	0xbd011935	-0.03151818
25	0x3d09442e	0.033512287
26	0xbcb0837e	-0.021547075
27	0xbc36a9f6	-0.01114892
28	0xbc04013c	-0.008056935
29	0xbd21773a	-0.039420344
30	0xbb501e00	-0.0031756163
31	0xbce63928	-0.028103426
32	0x3c926ae6	0.017873239
33	0xbcae4a83	-0.021275764
34	0xbbd6c680	-0.0065544248
35	0x3d29e56d	0.041478563
36	0xbd3a5230	-0.045488536
37	0x3c47f6c8	0.012204833
38	0xbcf8cab5	-0.030370096
39	0x3d0f14eb	0.03493206
40	0x3c82ccb8	0.015966758
41	0x3c853c5e	0.016264137
42	0x3b8a38d7	0.0042182016
43	0x3ca5aa16	0.020222705
44	0xbd0e73e6	-0.034778498
45	0xbb52a514	-0.0032141851
46	0xbcf535f9	-0.029932963
47	0xbd1878ce	-0.037224583
48	0xbd2c0cc8	-0.042004377
49	0xbcbf1cf0	-0.023329228
50	0xbb8f8a46	-0.004380497
51	0x3bef6ba3	0.0073065325
52	0xbc109344	-0.008824173
53	0xbd2e083d	-0.042488325
54	0x3cf02a15	0.029316941
55	0xbc787115	-0.01516368
56	0x3c21fd23	0.009887013
57	0xbd2e2798	-0.04251823
58	0xbb7ea414	-0.0038855122
59	0x3c88bfc9	0.016693013
60	0x3ca02ad5	0.019551674
61	0x3b834ff0	0.004007332
62	0xbcb29e14	-0.021803893
63	0xbc5b593d	-0.013387975
64	0x3ca6d9d6	0.020367544
65	0xbcf39f9e	-0.029739197
66	0x3c891eaa	0.016738255
67	0x3cc2d776	0.02378438
68	0x3c8d7c42	0.017271165
69	0xbd2de8fe	-0.042458527
70	0xbd5e4850	-0.05426818
71	0xbc8f7934	-0.017513849
72	0xbbea23e9	-0.007145394
73	0xbd23b4f1	-0.03996748
74	0xbd0d4169	-0.034486208
75	0x3ca8322a	0.020531733
76	0x3ce2bc66	0.027677726
77	0x3b5357cc	0.0032248376
78	0xbc881fa2	-0.016616646
79	0xbd1b2848	-0.037880212
80	0xbbdf2201	-0.0068094735
81	0x3c4bb784	0.01243389
82	0x3cd8bf7c	0.026458494
83	0xbc834d70	-0.016028136
84	0xbd1dc81a	-0.03852091
85	0xbc21da53	-0.009878713
86	0x3c711b3e	0.014715968
87	0x3baecce5	0.005334484
88	0xbd4de72a	-0.050269283
89	0xbd4caf58	-0.04997191
90	0xbcb3904a	-0.021919388
91	0xbb81383d	-0.0039434717
92	0x3c18257c	0.009286281
93	0xbd18d4a0	-0.03731215
94	0xbd2d2aef	-0.042277273
95	0xbc855388	-0.016275182
96	0xbbdac77f	-0.006676614
97	0xbb4cfdf9	-0.003127931
98	0xbc99059a	-0.018679429
99	0x3c3cb643	0.011518064
100	0x3b3dc808	0.002895834
101	0xbba2c797	-0.0049676406
102	0x3b59c2ed	0.0033227757
103	0x3d0f5794	0.03499563
104	0xbd27dc97	-0.040981855
105	0xbc9ecde6	-0.01938529
106	0xbd3bc948	-0.045846254
107	0x3cc4872f	0.023990242
108	0x3cc9e693	0.02464608
109	0xbac7aebd	-0.0015234571
110	0x3d0b5a49	0.03402165
111	0xbd099800	-0.033592224
112	0xbbe083b1	-0.0068516363
113	0xbcefc6aa	-0.029269535
114	0xbcdaec7d	-0.026724095
115	0x3ce3d2ed	0.027810538
116	0x3cb42013	0.02198795
117	0xbcfa3d48	-0.0305468
118	0xbcdd5a69	-0.02702065
119	0x3caf1e9f	0.021376906
120	0x3cda9e1b	0.026686719
121	0xbca09462	-0.019602004
122	0x3d00a405	0.03140642
123	0xbd31c534	-0.04340096
124	0xbc7d9738	-0.015477948
125	0xbc8b43a3	-0.017000025
126	0x3ad7668e	0.0016433762
127	0x3cbca2a6	0.023026776
128	0xbcfdf6a2	-0.031001393
129	0xbd0ffe8b	-0.03515486
130	0xbcd42b00	-0.02589941
131	0xbd01563d	-0.031576384
132	0x3c567632	0.013089703
133	0xbb26ff26	-0.002548167
134	0xbd09d0a5	-0.033646245
135	0xbcccc467	-0.024995996
136	0x3c332fd2	0.010936694
137	0x3cba7588	0.022761121
138	0x3cfc0a95	0.030766765
139	0xbcdca0eb	-0.0269322
140	0x3c8a6182	0.016892198
141	0x3ca37ddb	0.019957474
142	0xbc5d0e1a	-0.013492132
143	0x3d003786	0.03130295
144	0xbd085aeb	-0.03328983
145	0xbca7070e	-0.020389106
146	0xbceabe5a	-0.02865522
147	0x3c1ac1e7	0.009445644
148	0xbc0b4a02	-0.008501532
149	0xbd345218	-0.044023603
150	0xbcfdd9d6	-0.030987661
151	0x3cd064ae	0.025438633
152	0xbcf78446	-0.03021444
153	0x3d0ba777	0.034095254
154	0xbc313bd7	-0.01081749
155	0xbb1f8f1f	-0.0024346781
156	0xbcef3ddc	-0.029204302
157	0xbcb272ff	-0.02178335
158	0x3c0c2daa	0.008555809
159	0xbc544ed7	-0.01295825
160	0xbc97fc42	-0.018552903
161	0xbd33bdc7	-0.043882158
162	0x3caa5b52	0.020795498
163	0xbbec4e9f	-0.007211521
164	0x3ccda93f	0.025105117
165	0xbd083355	-0.03325208
166	0x3cda7a7c	0.026669733
167	0xbcbb9ea2	-0.02290279
168	0xbc5a9b72	-0.013342725
169	0x3b8b010b	0.0042420677
170	0xbd368bc4	-0.044566885
171	0xbc37201a	-0.011177087
172	0x3c0035f2	0.007825362
173	0x3bee31f7	0.00726914
174	0x3c1d5d3e	0.00960475
175	0xbce73dd5	-0.028227726
176	0xbcaa656a	-0.020800311
177	0xbced387f	-0.028957603
178	0xba0d6512	-0.0005393784
179	0xbb95317b	-0.0045530177
180	0x3c0ca1bf	0.008583485
181	0xbc95bcb3	-0.018278455
182	0xbcb30f45	-0.021857867
183	0x3beac886	0.0071650175
184	0xbd0851bc	-0.033281073
185	0x3c666cf4	0.014064062
186	0xbc80a90b	-0.015705606
187	0xbcf85b6c	-0.03031703
188	0x3cfcc1e1	0.030854167
189	0xbd1d46e3	-0.03839768
190	0xbcf8848c	-0.03033664
191	0x3ce22eef	0.02761027
192	0x3cfb36a4	0.030665703
193	0xbcd5ac71	-0.026083203
194	0xbba7454d	-0.005104697
195	0xbd32b393	-0.043628287
196	0xbce3d8aa	-0.027813274
197	0xbd02cb2b	-0.031932037
198	0x3d016918	0.031594366
199	0xb96d7071	-0.00022643969
200	0xba80f939	-0.0009839899
201	0xbc60155e	-0.013676969
202	0x3c9c0f9a	0.019050408
203	0xbb8b3741	-0.00424853
204	0xbb68177c	-0.0035414388
205	0xbbb97f1c	-0.0056609046
206	0x3ce538ba	0.02798115
207	0x3ced6c2a	0.02898224
208	0xbbce4cd7	-0.006295781
209	0xbc522f6c	-0.012828689
210	0xba8e1d0a	-0.0010842395
211	0xbd2e2848	-0.042518884
212	0xbc95cd1c	-0.01828628
213	0xbbbdb5b3	-0.0057894825
214	0xbcf7d6a3	-0.030253714
215	0xbbacab63	-0.0052694543
216	0x3cf3f311	0.029778989
217	0xbccfca0f	-0.025364904
218	0x3cd60013	0.026123082
219	0xbc967f4a	-0.018371243
220	0x3c01a643	0.007913175
221	0xbd395c0d	-0.045253802
222	0x3be5a1ec	0.007007828
223	0x3c9a271c	0.018817477
224	0x3c6970d9	0.014248096
225	0xbd29d13a	-0.0414593
226	0x3c0039ce	0.007826282
227	0x3c26e894	0.010187287
228	0x3cc0b6c8	0.023524657
229	0xbc881d1f	-0.016615449
230	0xbd331c79	-0.043728326
231	0x3bcaaf0a	0.006185417
232	0xbd3d8994	-0.046273783
233	0x3b9e80b3	0.0048371195
234	0xbd28a8e1	-0.04117668
235	0xbc29a0ce	-0.01035328
236	0x3c2e8f20	0.010654241
237	0xbce02a0f	-0.027363805
238	0xbd22352c	-0.03960149
239	0xb9ccd738	-0.00039070263
240	0x3d192d28	0.03739658
241	0xbd492d78	-0.049115628
242	0xbc82be40	-0.015959859
243	0xbd1b2a82	-0.037882335
244	0xbc452924	-0.0120337345
245	0x3cc75f90	0.02433756
246	0x3cb451c8	0.022011653
247	0xbd493d42	-0.049130686
248	0xbd1b04c7	-0.037846353
249	0xbca1bd40	-0.019743562
250	0x3cd4b8be	0.025966998
251	0x3c4dde11	0.012565152
252	0x3cdab0b0	0.02669558
253	0x3ac70206	0.0015183098
254	0xbd478c90	-0.048718035
255	0x3c529843	0.012853685

fc1.bias f4 [256]
0	0xbc890343	-0.016725188
1	0xbcdae0cd	-0.026718521
2	0xbcfc00c7	-0.03076209
3	0xbce200d2	-0.027588282
4	0xbd841f3e	-0.064512715
5	0x3d266805	0.040626545
6	0x3c295949	0.010336229
7	0xbb31b7eb	-0.002711768
8	0x3d3675dc	0.044545993
9	0x3c32c6ae	0.010911627
10	0x3d62ecbf	0.05540156
11	0x3d419368	0.04725972
12	0x3d8a2728	0.0674575
13	0x3cddb424	0.027063437
14	0x3d642fe4	0.055709735
15	0xbd1ad85c	-0.037803993
16	0x3d8439a6	0.06456308
17	0xbe256653	-0.16152315
18	0x3c2bf8f6	0.010496369
19	0xbc3177da	-0.0108317975
20	0xbd9c2503	-0.07624247
21	0xbd248f36	-0.04017564
22	0x3d41c3a2	0.04730571
23	0xbcf80d49	-0.030279772
24	0x3d01401f	0.03155529
25	0xbbf33ead	-0.007423243
26	0xbc2e1299	-0.010624551
27	0x3bdfbd47	0.0068279835
28	0x3b6f1a80	0.00364843
29	0x3d1af208	0.037828475
30	0xbd496200	-0.049165726
31	0x3d10b22f	0.03532618
32	0x3c5db9e7	0.013533092
33	0x3c008bda	0.007845843
34	0x3d2c74c0	0.04210353
35	0xbca9f5b3	-0.020747041
36	0x3c55bbfa	0.013045305
37	0x3d5204ea	0.051274218
38	0x3d6bb36b	0.057544153
39	0x3d50cf04	0.050978675
40	0x3af721ea	0.0018854712
41	0xbcef2eac	-0.02919706
42	0xbc8d66f2	-0.017261002
43	0x3cdac27e	0.02670407
44	0x3d76b558	0.060231537
45	0x3dae19cf	0.08501016
46	0x3cf4ef8d	0.029899383
47	0xbca0394d	-0.019558573
48	0xbd1ddbb0	-0.03853959
49	0x3d1dd35d	0.03853165
50	0x3b0e6759	0.002172908
51	0xbc81ef95	-0.015861312
52	0x3b7bfbaf	0.0038449576
53	0x3d01caae	0.03168743
54	0x3d3915f6	0.04518696
55	0x3d8db01a	0.06918354
56	0x3bda245c	0.0066571664
57	0x3c4d693b	0.012537296
58	0x3cfb0c85	0.030645618
59	0x3d19a90f	0.037514742
60	0x3d192911	0.03739268
61	0x3ccba63f	0.024859546
62	0x3c461e19	0.012092137
63	0x3bba8cb6	0.0056930436
64	0xbc6e07cb	-0.014528225
65	0xbcef550b	-0.029215356
66	0x3d6ae963	0.05735148
67	0x3c56b9e4	0.013105843
68	0x3d90e958	0.07075757
69	0x3c7038a0	0.014661938
70	0x3c1b5332	0.0094802845
71	0xbd57f407	-0.052722957
72	0x3c91f233	0.017815685
73	0x3d3b94b1	0.0457961
74	0x3d019a3c	0.03164123
75	0xbbb4d853	-0.005518952
76	0xbcd27d1a	-0.025694419
77	0xb7fe59de	-3.0321007e-05
78	0xbd5f9d20	-0.054593205
79	0x3bbd3d32	0.0057751173
80	0xb9636d84	-0.00021689205
81	0x3b22d551	0.0024846385
82	0xbc36115d	-0.011112538
83	0x3d9dbbae	0.07701813
84	0x3db2bcca	0.08727415
85	0xbbe28f45	-0.0069140517
86	0x3cf4efd3	0.029899513
87	0x3d289ee0	0.04116714
88	0x3b866183	0.00410098
89	0x3c014a45	0.007891242
90	0xbbe43de5	-0.006965386
91	0xbd58bdf0	-0.052915514
92	0x3c1a95b8	0.00943511
93	0xbcd39d33	-0.025831794
94	0x3b6c4481	0.0036051574
95	0x3d542b64	0.051799193
96	0x3d038d01	0.032116894
97	0xbc5143bf	-0.0127725
98	0x3cb50ac5	0.022099862
99	0xbd7aa165	-0.061189074
100	0xbddcd786	-0.10783295
101	0x3d9867f4	0.074417025
102	0x3cfe36c1	0.031031968
103	0x3d0eace4	0.03483285
104	0x3b81a787	0.0039567384
105	0xbbb73ef3	-0.005592221
106	0xbc8ed723	-0.01743657
107	0x3d2ce341	0.042208914
108	0x3dc4d5bd	0.0961108
109	0x3c3aacf3	0.011393773
110	0xbb90c66e	-0.004418186
111	0x3d4e6686	0.050390743
112	0xbcd3d2bd	-0.025857324
113	0xbd3367de	-0.043800227
114	0x3d89114f	0.066927545
115	0x3ce4ea0e	0.027943637
116	0xbbf71fb9	-0.0075416234
117	0x3d875582	0.06608106
118	0xbd4db563	-0.050221812
119	0xbd2617ed	-0.04055016
120	0xbe0f6498	-0.14003217
121	0xbc307207	-0.010769374
122	0x3c9fb1d4	0.019493975
123	0xbc8073c5	-0.015680203
124	0xbd39f2d2	-0.045397587
125	0xbc126428	-0.008935012
126	0xbc3e64b2	-0.011620687
127	0xbd86574d	-0.0655962
128	0x3d98d7a9	0.07463009
129	0x3c5a4275	0.013321509
130	0xbca6013c	-0.02026426
131	0xbd0703e6	-0.032962702
132	0x3d13e7da	0.036109783
133	0x3d889108	0.066682875
134	0x3c174239	0.009232097
135	0x3c82005d	0.015869314
136	0xbd35a79b	-0.044349294
137	0xbac8f3b7	-0.0015331422
138	0x3dc1b39a	0.094580844
139	0xbd09fe10	-0.03368956
140	0xbd69d178	-0.05708453
141	0x3ce33696	0.02773599
142	0xbcab0699	-0.02087717
143	0x3cd1bfc7	0.025604142
144	0xbd080810	-0.033210814
145	0x3d60b3fa	0.05485914
146	0x3d36c19d	0.044618238
147	0xbd94f983	-0.07274153
148	0xbb945a1f	-0.004527345
149	0x3d5288e0	0.051400065
150	0x3d9604b7	0.07325118
151	0x3da62f6c	0.08114514
152	0x3aeaa596	0.0017902132
153	0xbc8d02f6	-0.017213326
154	0xbb4f0641	-0.003158942
155	0x3d0a2aab	0.033732098
156	0x3d8b4cec	0.06801781
157	0xbb0d8d48	-0.0021599103
158	0x3c958371	0.018251153
159	0x3d81b5b3	0.063334845
160	0x3cb14405	0.02163888
161	0xbd3efe36	-0.046629153
162	0x3c8b0836	0.016971689
163	0xbce0d5d8	-0.027445719
164	0xbdff6301	-0.12470055
165	0x3c52db7d	0.012869713
166	0xbc826a4b	-0.015919825
167	0x3de7d6b7	0.113202505
168	0x3d69a00d	0.057037402
169	0x3c68db01	0.014212371
170	0xbcd704ef	-0.02624747
171	0x3d76964b	0.060201924
172	0x3cdfd962	0.027325336
173	0x3d7b608f	0.061371382
174	0x3d107452	0.03526718
175	0xbd3f719f	-0.046739217
176	0xbce230bb	-0.027611127
177	0x3d1b1950	0.037865937
178	0xbdac2785	-0.08405975
179	0xbc37d742	-0.011220755
180	0xbce69c39	-0.028150665
181	0x3cb35eff	0.021895884
182	0x3d2c9c1d	0.04214107
183	0x3cc56a12	0.02409843
184	0x3cbd38c0	0.02309835
185	0xbca499ec	-0.020092927
186	0xbcf8925f	-0.030343233
187	0x3bade3f8	0.005306717
188	0x3d601d13	0.054715227
189	0x3d7c8177	0.061646905
190	0x3c0b9bec	0.008521061
191	0x3cc20836	0.023685556
192	0x3cca352b	0.024683556
193	0xbbe7a0e7	-0.0070687416
194	0x3aea5dd2	0.0017880744
195	0x3d09f06e	0.033676557
196	0xbbd6bad4	-0.0065530334
197	0x3d0fa03a	0.035064913
198	0x3ccf6fd8	0.025321886
199	0xbd13a4db	-0.03604589
200	0xbbcfedf8	-0.0063455068
201	0xbc9c07d6	-0.019046705
202	0xbdac4142	-0.084108844
203	0x3ce6ef7e	0.02819037
204	0xbc01ade7	-0.007914997
205	0xbd0e5dd3	-0.034757446
206	0xbc14234a	-0.009041617
207	0x3d29116b	0.041276377
208	0x3c1a829a	0.009430552
209	0x3d1f8043	0.03894068
210	0xbc876148	-0.01652588
211	0x3cfe00d8	0.031006262
212	0xbc82f5b0	-0.015986294
213	0x3cfd4e1c	0.030921035
214	0x3d8fa953	0.07014718
215	0x3dd51385	0.10404114
216	0x3d0087b7	0.031379428
217	0xb9ae947d	-0.000332985
218	0x3c7fc08b	0.015609871
219	0x3ccc4669	0.024935918
220	0x3d6c8700	0.057745934
221	0xbbc4ff0d	-0.0060118497
222	0xbd25b46d	-0.04045527
223	0x3d93b10c	0.072115034
224	0xbcf40feb	-0.029792747
225	0xbd4448e5	-0.04792108
226	0xbc973caf	-0.018461553
227	0x3d754657	0.059881534
228	0xbc926ef3	-0.01787517
229	0xbcb30f06	-0.02185775
230	0xbc0d6961	-0.008631081
231	0xbcfb4314	-0.030671634
232	0xbc1c7809	-0.009550103
233	0xbccca27e	-0.024979826
234	0x3c914c6d	0.017736638
235	0x3c9bf82c	0.019039236
236	0x3c1036db	0.008802141
237	0xbc0ba18e	-0.008522404
238	0x3cbdcdf0	0.023169488
239	0x3c53dafa	0.012930626
240	0xbc9df25f	-0.01928061
241	0x3dc8aa9a	0.09798165
242	0x3d03317d	0.032029618
243	0x3d489ca3	0.048977505
244	0x3ccef5b4	0.025263645
245	0xbd498cb3	-0.049206447
246	0x3c608fd5	0.013706167
247	0x3d2d00be	0.042237036
248	0xbdb78580	-0.0896101
249	0x3d97aaa5	0.07405595
250	0x3bff3119	0.0077878353
251	0x3b33046a	0.0027315863
252	0xbc948547	-0.018129958
253	0xbd8b6e74	-0.06808177
254	0x3d8e048f	0.06934463
255	0xbd2de501	-0.042454723

fc2.weight f4 [4, 256]
0	0x3d29ffac	0.041503593
1	0x3d4dfed9	0.05029187
2	0x3d0ca43d	0.034336317
3	0x3d48c0a1	0.04901183
4	0xbf637b49	-0.88859993
5	0x3deee57a	0.11664863
6	0x3e8f45ee	0.2798304
7	0x3e6830b1	0.22674824
8	0xbdfa5ebc	-0.122251004
9	0xbf512a46	-0.8170513
10	0x3dc75863	0.09733655
11	0x3e326cc2	0.174243
12	0x3e8733ea	0.26406795
13	0xbe201456	-0.15632758
14	0x3d606c2c	0.05479066
15	0x3d17a037	0.037018027
16	0xbc9d4143	-0.019196158
17	0x3f728ca1	0.9474583
18	0x3d1332a0	0.03593695
19	0xbd9ed694	-0.07755771
20	0x3ee8fa2a	0.4550336
21	0xbe31db79	-0.17368878
22	0x3e7a299e	0.24429938
23	0x3ec589e6	0.3858177
24	0xbf08079c	-0.5313661
25	0xbebd311d	-0.36951533
26	0x3e1bb1f7	0.15204607
27	0xbee9ac07	-0.4563906
28	0x3f117263	0.56815165
29	0xbfbaebe7	-1.4603242
30	0xbcc07193	-0.023491656
31	0xbef74534	-0.48294985
32	0xbe91e18e	-0.28492397
33	0x3d0e070d	0.034674693
34	0x3df444b0	0.119271636
35	0x3e97a9b3	0.29621658
36	0x3f1e411b	0.61818093
37	0xbec86c70	-0.3914523
38	0xbe8e3eab	-0.27782187
39	0xbf2292bb	-0.6350514
40	0x3d33fb28	0.043940693
41	0x3e93e8eb	0.2888864
42	0xbd85cb7b	-0.065329514
43	0xbd53447b	-0.05157898
44	0x3f1cadfd	0.61202985
45	0x3e001b5e	0.1251044
46	0xbe456993	-0.19278555
47	0x3ccfdefb	0.02537488
48	0x3d72be8f	0.059263762
49	0x3dc67f96	0.09692304
50	0xbec7e921	-0.3904505
51	0x3eb192ce	0.34682316
52	0x3ebf7a12	0.3739782
53	0xbd641f3f	-0.05569386
54	0x3e46a321	0.19398166
55	0x3e8ad59a	0.2711609
56	0xbe865526	-0.26236838
57	0x3da55237	0.08072322
58	0x3cf1f1a2	0.029534165
59	0xbf0cff2e	-0.55076873
60	0x3e27276c	0.16323632
61	0xbd40fb9c	-0.047114953
62	0xbeb24b69	-0.34823158
63	0xbebf8004	-0.37402356
64	0xbf15cc02	-0.58514416
65	0xbc8c335f	-0.01711434
66	0xbe0c953c	-0.13728803
67	0x3e239de2	0.15978196
68	0xbfb20856	-1.3908794
69	0xbdb1d5bb	-0.08683344
70	0xbfa9c1bf	-1.3262252
71	0xbe2c46d8	-0.168239
72	0xbe3741ca	-0.1789619
73	0x3df82ceb	0.121179424
74	0xbe7e7dee	-0.24852726
75	0xbd06fc2a	-0.032955326
76	0xbe836054	-0.2565943
77	0x3d2e325c	0.042528495
78	0xbe95f937	-0.29291698
79	0x3d439a57	0.04775461
80	0x3d69b0b6	0.05705329
81	0xbdcbd410	-0.09952557
82	0x3d23be2d	0.039976288
83	0xbeeb7c3c	-0.4599322
84	0xbf2c6419	-0.67340237
85	0xbde71cda	-0.112848
86	0xbf625e35	-0.88425
87	0x3e74da82	0.23911479
88	0xbebae20b	-0.36500582
89	0xbd16b8a5	-0.036797184
90	0x3c6c7607	0.014432437
91	0xbec29fcc	-0.3801254
92	0x3f36322a	0.71170294
93	0x3c2d25cb	0.010568093
94	0x3ed4e0b7	0.41577694
95	0x3df32a21	0.1187327
96	0xbce4f69b	-0.027949622
97	0x3c2c22e8	0.010506369
98	0xbe358725	-0.17727335
99	0xbe9cbb5c	-0.30611694
100	0x3ea26270	0.31715727
101	0xbee046b9	-0.43803957
102	0x3f30b913	0.690324
103	0x3efbcd76	0.49180192
104	0x3c3c431c	0.0114906095
105	0x3e8ff78c	0.2811855
106	0x3d3beb84	0.045878902
107	0xbeea7160	-0.45789623
108	0x3ddcb407	0.10776525
109	0xbec4ea0d	-0.38459817
110	0x3e96e3f4	0.2947079
111	0x3e2c3fcc	0.16821212
112	0x3d20731d	0.03917228
113	0xbe5661a9	-0.20935692
114	0x3e18cace	0.14921114
115	0x3ce617b4	0.028087474
116	0xbf3c9a68	-0.73673105
117	0x3e956fc2	0.29186827
118	0xbc85c12a	-0.01632746
119	0xbe5d9532	-0.21638945
120	0x3a7e4987	0.00097002875
121	0xbf2cbfe6	-0.67480314
122	0xbe30cffc	-0.1726684
123	0x3d1eab14	0.03873737
124	0xbd142822	-0.036171086
125	0xbec8938a	-0.39175063
126	0x3d0b7cb2	0.034054466
127	0xbf840193	-1.031298
128	0x3e0a2ff6	0.13494858
129	0xbe90f437	-0.2831132
130	0xbbe229e2	-0.0069019655
131	0x3e2e661a	0.17031136
132	0xbf7bafe7	-0.9831528
133	0xbee9c088	-0.45654702
134	0x3e769bbe	0.24082848
135	0x3dff76f4	0.124738604
136	0x3e68c9f1	0.22733285
137	0x3ea1d6a6	0.31609076
138	0xbaabb61a	-0.0013100535
139	0x3d250362	0.04028643
140	0x3f0a3e2d	0.5400112
141	0xbecbfb9c	-0.398404
142	0x3ecc433e	0.39895052
143	0x3d3167e1	0.043311957
144	0x3e97c897	0.29645225
145	0x3cdeb67a	0.027186621
146	0xbca79d31	-0.020460697
147	0xbe2f259d	-0.17104192
148	0x3cd872a0	0.026421845
149	0x3f221cbf	0.63325113
150	0xbe7dd3f9	-0.24787892
151	0x3e67423a	0.22583857
152	0xbe1e9db1	-0.15489842
153	0x3eb105a8	0.34574628
154	0x3b529ca2	0.0032136817
155	0x3f192421	0.59820753
156	0x3f6591da	0.89675677
157	0xbd9346d3	-0.07191243
158	0xbe228d6c	-0.1587426
159	0xbe2d32a3	-0.16913848
160	0xbe2cf04e	-0.16888544
161	0x3e916188	0.28394723
162	0xbe3de656	-0.18544897
163	0xbd187e7e	-0.037230007
164	0xbeacd3a4	-0.3375522
165	0x3c14838d	0.009064567
166	0xbcf6c178	-0.03012155
167	0x3e2e0b4b	0.16996495
168	0xbea6cfdf	-0.32580468
169	0xbf83ba4f	-1.0291232
170	0x3ca52f28	0.020164087
171	0xbfa4ff23	-1.2890362
172	0xbd03b66a	-0.032156385
173	0xbf166915	-0.5875409
174	0xbe78a5d3	-0.24282007
175	0x3ec66283	0.38747033
176	0xbe910d57	-0.2833049
177	0x3d5b3be3	0.05352391
178	0xbdd3b488	-0.10337168
179	0xbc481f1c	-0.012214448
180	0xbc9561e8	-0.018235162
181	0x3c7d9d8c	0.015479457
182	0xbe808463	-0.25101003
183	0xbf065e52	-0.5248767
184	0x3d49c489	0.049259696
185	0x3e25788e	0.16159269
186	0x3ee3b0fa	0.4447096
187	0x3dda1243	0.106480144
188	0x3ed66cd6	0.4187991
189	0xbde78aab	-0.11305746
190	0x3ec7b2c5	0.39003578
191	0x3d55700d	0.052108813
192	0x3ebb340c	0.36563146
193	0xbf70a1df	-0.93996996
194	0xbf19867c	-0.5997083
195	0xbedb0b63	-0.42782125
196	0xbc98bf0d	-0.018645788
197	0x3e8258bf	0.25458333
198	0xbe7812c4	-0.24225909
199	0xbd0ea5eb	-0.0348262
200	0x3cc679de	0.024228033
201	0xbe106e4a	-0.14104572
202	0xbe0b807b	-0.1362323
203	0xbe8b25cf	-0.27177283
204	0xbd2b4e47	-0.041822698
205	0x3c6ad783	0.014333609
206	0x3e0d84cd	0.1382019
207	0x3e959fb0	0.29223394
208	0x3cb2f93e	0.021847364
209	0x3c2f8e3c	0.010715064
210	0x3d1b9c9a	0.037991144
211	0xbce14078	-0.027496561
212	0xbd68577f	-0.056724068
213	0x3e244c1a	0.16044655
214	0x3eba8db3	0.36436233
215	0x3e16d8dd	0.14731164
216	0x3ea6ef96	0.32604665
217	0x3d49d0db	0.049271446
218	0x3f2bc976	0.6710428
219	0x3c1ab254	0.009441931
220	0x3e6b3183	0.22968106
221	0xbd213398	-0.039355844
222	0x3f09f6c0	0.53892136
223	0xbe9852ba	-0.29750615
224	0x3e5a2a45	0.21305187
225	0xbca6a32d	-0.02034148
226	0xbd5005ac	-0.05078666
227	0x3dae59cc	0.08513221
228	0xbc7cd702	-0.015432121
229	0xbe92b084	-0.28650296
230	0xbeb9192a	-0.3615201
231	0xbc75b9ea	-0.014997939
232	0x3d6d01ec	0.05786316
233	0x3b361a2e	0.00277866
234	0x3d1fb004	0.03898622
235	0xbf94bda2	-1.1620371
236	0xbccb8f8f	-0.024848728
237	0x3e649d3a	0.22325602
238	0x3df8217b	0.12115761
239	0xbf0241b6	-0.50881517
240	0x3ef310b7	0.4747369
241	0x3edde379	0.4333761
242	0x3f298c4a	0.6622969
243	0xbef41621	-0.47673133
244	0xbecde913	-0.40216884
245	0x3e6a313c	0.22870344
246	0xbe796645	-0.24355419
247	0x3eadc100	0.3393631
248	0x3eda4b2b	0.42635474
249	0x3d227ef9	0.03967187
250	0xbf9e6503	-1.2374576
251	0x3e42bb9d	0.19016881
252	0x3e355a8c	0.17710322
253	0xbe2b693f	-0.16739367
254	0xbf232ea0	-0.6374302
255	0x3cecba0e	0.028897312

fc2.bias f4 [4]
0	0x3c9a1536	0.018808942
1	0xbd1c950a	-0.038228072
2	0x3d28bac9	0.041193757
3	0xbd218bcd	-0.039439965
